public/onnx/irises.onnx (onnx, 3933 bytes, 6 tensors)

layer1.weight f4 [24, 4]
0	0xbe575b54	-0.21030933
1	0xbe87604d	-0.2644066
2	0x3e981ed5	0.29711023
3	0xbdc01b96	-0.093802616
4	0x3d9c2afb	0.076253854
5	0x3e28f52d	0.16499777
6	0x3eb70b39	0.3575075
7	0xbf0def36	-0.5544313
8	0x3d9eab85	0.077475585
9	0x3e2e6c12	0.17033413
10	0x3ea672e5	0.32509533
11	0x3e7a4767	0.244413
12	0xbb9ae292	-0.0047267163
13	0x3c135763	0.008993003
14	0x3ea07305	0.31337753
15	0x3eef3b11	0.46724752
16	0x3ecdd914	0.4020468
17	0x3ecc1ebf	0.39867207
18	0x3df87b19	0.12132854
19	0xbec07783	-0.3759118
20	0xbe8813c9	-0.26577595
21	0xbe928219	-0.28614882
22	0xbd3542f3	-0.0442533
23	0xbd827bc5	-0.063712634
24	0xbd75e5d5	-0.060033638
25	0xbd312b7f	-0.04325437
26	0x3e263eac	0.16234845
27	0x3e3f5e5e	0.18688342
28	0xbc2a8fbc	-0.0104102455
29	0xbea8dfd5	-0.3298327
30	0xbd38de67	-0.045133974
31	0x3e4b1496	0.19832072
32	0x3e59147f	0.21199225
33	0xbbc4e32c	-0.0060085263
34	0xbe59574c	-0.21224707
35	0x3eb91f88	0.3615687
36	0x3db3ba8c	0.08775815
37	0x3e88e054	0.2673365
38	0xbe5e489f	-0.2170739
39	0xbe967bca	-0.2939132
40	0x3ecc6029	0.39917114
41	0xbe6032e1	-0.21894409
42	0xbeea4adc	-0.45760238
43	0x3dff2983	0.124590896
44	0x3eb95de5	0.36204448
45	0x3d1783e7	0.036991026
46	0xbefe3b26	-0.49654502
47	0x3edd2f4e	0.43200153
48	0xbe0d512b	-0.13800494
49	0xbe2cf356	-0.168897
50	0x3e87462c	0.26420724
51	0x3d04665b	0.032324176
52	0x3ec9a343	0.3938237
53	0x3db66f12	0.08907904
54	0xbe01096e	-0.12601253
55	0xbe811e26	-0.25218314
56	0x3e909dd7	0.28245422
57	0x3e50c691	0.20388247
58	0x3ed32915	0.4124228
59	0xbdda5ce6	-0.1066225
60	0xbd498241	-0.049196485
61	0x3ea29a8d	0.31758538
62	0xbd8180ff	-0.06323432
63	0xbea01655	-0.31267038
64	0xbe696988	-0.22794163
65	0x3e6b954c	0.23006171
66	0xbe59ab89	-0.21256842
67	0xbe25322d	-0.16132422
68	0x3e3048b0	0.17215228
69	0x3eea7cd5	0.45798364
70	0xbee8807c	-0.45410526
71	0xbeb3c72d	-0.35112897
72	0x3cff6fef	0.031181304
73	0xbe00692d	-0.12540121
74	0x3efea695	0.49736467
75	0x3ec13ebf	0.37743184
76	0x3ede340e	0.4339909
77	0x3e9854a8	0.29752088
78	0xbe987652	-0.2977777
79	0xbda1483b	-0.07875105
80	0xbe8d940d	-0.27652016
81	0xbeb06ffe	-0.34460443
82	0xbd659220	-0.05604756
83	0xbe117ac7	-0.14206992
84	0xbea88c5a	-0.3291958
85	0x37dd9cf8	2.6418347e-05
86	0x3a427fd4	0.00074195606
87	0xbe3d011b	-0.18457453
88	0x3eab5562	0.3346358
89	0xbeee96d7	-0.46599457
90	0x3ec9b7b5	0.3939797
91	0xbe97a981	-0.2962151
92	0xbe3dce06	-0.18535623
93	0xbe65ded2	-0.2244828
94	0xbed7c2e0	-0.42140865
95	0x3e99af2e	0.30016464

layer1.bias f4 [24]
0	0x3eacd5b0	0.3375678
1	0xbe23845a	-0.15968457
2	0xbe5cecbf	-0.21574686
3	0x3e327f67	0.17431413
4	0xbdb1347b	-0.08652588
5	0x3d2c6377	0.042087045
6	0x3eb81828	0.3595593
7	0x39868f1e	0.00025665102
8	0x3e9d8ba1	0.3077059
9	0x3ef4c2eb	0.4780496
10	0x3ecdeca3	0.40219602
11	0x3e2cbad9	0.16868152
12	0x3dfae7fe	0.1225128
13	0x3e40f064	0.18841702
14	0xbe0fbb97	-0.14036404
15	0x3ebbb259	0.36659506
16	0x3d820506	0.063486144
17	0xbe9b68e9	-0.30353478
18	0x3e46e82a	0.19424501
19	0xbe408637	-0.18801199
20	0x3cfdb32c	0.030969225
21	0xbea0f371	-0.3143573
22	0xbdeb61d6	-0.1149327
23	0xbd46da31	-0.048547927

layer2.weight f4 [24, 24]
0	0xbc47ce31	-0.012195156
1	0xb97f5158	-0.00024348998
2	0x3ac8a290	0.0015307236
3	0xbddb1665	-0.10697631
4	0xbc964345	-0.018342623
5	0xbba6589a	-0.00507648
6	0xbd6828c6	-0.05667951
7	0x3997176d	0.00028818418
8	0x3ae2afb7	0.0017294799
9	0x3de6b4d0	0.11264956
10	0xbd440e8a	-0.047865428
11	0xbd992799	-0.07478256
12	0xb911160f	-0.00013836495
13	0xbdc8cf28	-0.09805137
14	0x3db94d12	0.09047903
15	0xb8375f10	-4.3719134e-05
16	0xbdd24687	-0.10267358
17	0xbde8b0b4	-0.113618284
18	0xbdf5bfe6	-0.11999492
19	0x387bfb9a	6.0077386e-05
20	0xbd0d505a	-0.034500457
21	0xba63ae73	-0.0008685358
22	0xbd08dc34	-0.033413127
23	0xbd5a0d0a	-0.05323509
24	0x3d944ff0	0.07241809
25	0xbc6e6126	-0.014549529
26	0x3ce6a808	0.028156295
27	0x3e55f5f1	0.208946
28	0xbb4b30c5	-0.003100441
29	0xbdebbe05	-0.11510853
30	0xbcdfdabd	-0.027325982
31	0xbc3d41b3	-0.011551308
32	0xbd3f1838	-0.046653956
33	0xbdaf5ed1	-0.08563007
34	0xbcd1234e	-0.02552953
35	0xbe11d327	-0.14240704
36	0x3e4ea16e	0.20178768
37	0xbd462e84	-0.048384205
38	0xbb232c1c	-0.0024898117
39	0xbe566987	-0.20938693
40	0xbd9a18e7	-0.07524281
41	0xbd1d5d95	-0.038419325
42	0x3d6e589c	0.058189973
43	0x3e197363	0.14985423
44	0x3d55e0a9	0.052216206
45	0x39bb37e8	0.00035709073
46	0x3e64eba5	0.22355516
47	0x3da54573	0.08069887
48	0xbdf3329b	-0.118748866
49	0xbdfec1d0	-0.124393106
50	0xbc1ef679	-0.009702318
51	0x3d4f08e1	0.050545577
52	0xbdf93018	-0.12167376
53	0xbd9c096a	-0.07618983
54	0x3b3f621e	0.002920277
55	0xbb187e11	-0.00232685
56	0x3dac2257	0.08404987
57	0xbdb78e1b	-0.08962651
58	0xbe03554d	-0.12825508
59	0x3d112754	0.035437897
60	0x3d2822d8	0.041048855
61	0xba5f0c02	-0.0008508564
62	0x3d5619b0	0.05227059
63	0x3ce53e0e	0.027983692
64	0x3d436fa1	0.04771388
65	0xba31e323	-0.000678586
66	0xbd34f6a6	-0.044180535
67	0xbd8f276d	-0.06989942
68	0xb94be984	-0.0001944658
69	0x3de6cace	0.11269151
70	0xbda59ee0	-0.080869436
71	0xbc8d81ca	-0.017273802
72	0xbd000e03	-0.031263363
73	0xbdbf274d	-0.09333668
74	0xbdb86a68	-0.090046704
75	0x3dd3bc13	0.10338607
76	0x3e072481	0.13197519
77	0xbc1eb13d	-0.009685812
78	0x3dfe9e91	0.12432588
79	0xbce80a20	-0.02832514
80	0x3d8ccbb2	0.06874789
81	0xbe9023da	-0.28152353
82	0xbe7cbd14	-0.24681503
83	0x3e253dc8	0.16136849
84	0xbdc02a2e	-0.09383045
85	0x3d899f7a	0.06719871
86	0x3dc947f0	0.09828174
87	0x3cd84876	0.02640174
88	0x3dec33b0	0.11533296
89	0x3dc06a40	0.093952656
90	0x3e35c54c	0.17751044
91	0xbc0c5028	-0.008564033
92	0xbdd586df	-0.10426115
93	0xbdddeda6	-0.108363435
94	0x3e35e284	0.1776219
95	0x37817238	1.5431186e-05
96	0x3bc5b0ad	0.0060330243
97	0x3d83fedb	0.06445094
98	0xbdbb16a8	-0.09135181
99	0xbe39c2ff	-0.18140791
100	0x3e3d1f2b	0.18468921
101	0x3d413e6d	0.047178674
102	0xbd9eb09e	-0.07748531
103	0xb948a7ae	-0.00019135952
104	0xbe11ae18	-0.14226568
105	0xbe053b9b	-0.13011019
106	0x3d1578ef	0.036492284
107	0x3dfb0752	0.122572556
108	0xbc766acd	-0.015040112
109	0xbd975a51	-0.07390273
110	0x3e452682	0.19252971
111	0x3e27cc9d	0.16386648
112	0xb7aca0e3	-2.0578917e-05
113	0x3e38fc02	0.18064883
114	0xbe3967aa	-0.18105951
115	0xbdd72aff	-0.10506248
116	0xbc14aa88	-0.009073861
117	0xbda03390	-0.07822335
118	0x3e15f66e	0.14644787
119	0x3caf9742	0.02143443
120	0x3cd9841b	0.02655225
121	0xbc25953b	-0.01010638
122	0xbd6b7fe2	-0.057495005
123	0x3cb74b2e	0.022374716
124	0x3e0352af	0.1282451
125	0xbd363ea8	-0.044493347
126	0x3d8858c2	0.06657554
127	0x3d830b20	0.06398606
128	0xbe40545d	-0.18782182
129	0xbe5313db	-0.20613043
130	0xbe314804	-0.17312628
131	0xbe72cdd6	-0.23711333
132	0x3e31feda	0.17382374
133	0x3e05225f	0.13001393
134	0xbe16e358	-0.14735162
135	0x3d8f7a0d	0.07005701
136	0xbd699095	-0.05702265
137	0x3dd76c83	0.10518744
138	0x3e732810	0.23745751
139	0x3e046634	0.12929612
140	0x3ce76a56	0.028248947
141	0x3dd68d12	0.10476126
142	0x3e3c77d5	0.18405087
143	0x3daf319b	0.08554383
144	0x3d7cc405	0.061710376
145	0x3df98da3	0.12185218
146	0x391a99d2	0.00014743887
147	0xb95383d6	-0.00020171641
148	0xb8551156	-5.0799303e-05
149	0x3dd923d6	0.10602538
150	0x3db15a95	0.08659855
151	0x3a62c26a	0.0008650186
152	0xbdc395cf	-0.09550058
153	0xb93d0c3e	-0.00018029005
154	0xbde846e5	-0.11341647
155	0xbdc5fdc0	-0.096675396
156	0xbd404f7f	-0.046950813
157	0xbdc60f85	-0.09670929
158	0x3b083139	0.0020781292
159	0x3c9f653a	0.019457448
160	0xbdd1f30c	-0.10251436
161	0xbde476fb	-0.11155506
162	0xbde02b87	-0.10945802
163	0xb91cf879	-0.00014969883
164	0x391e052e	0.00015069984
165	0xb9cc7068	-0.0003899366
166	0xbda6eab8	-0.08150238
167	0x36aab255	5.0871554e-06
168	0xbd27477b	-0.040839653
169	0xbe0f2917	-0.13980518
170	0xbe0b253f	-0.13588427
171	0xbe4c5744	-0.19955164
172	0xbd4ab4f7	-0.049488988
173	0xb8b5e22b	-8.6728796e-05
174	0xbe041b9e	-0.1290116
175	0xb74ab0b0	-1.20812765e-05
176	0x3d349a3e	0.04409241
177	0x3d77ec0c	0.060527846
178	0x3c0b4e39	0.008502536
179	0x3debb647	0.11509376
180	0x3e5062b7	0.20350157
181	0x3d34e8ee	0.04416745
182	0x3b924316	0.0044635637
183	0x3cdee5f1	0.027209254
184	0x3bf55154	0.0074865017
185	0x3d9efb58	0.07762784
186	0x3e002a90	0.12516236
187	0x3e4da412	0.20082119
188	0x3bf0b392	0.007345625
189	0xbd4bb034	-0.049728587
190	0x3e3fbfa0	0.18725443
191	0x3db33d1d	0.08751891
192	0x3c68c425	0.014206921
193	0xbdefc55d	-0.11707566
194	0x3d1b68bc	0.03794168
195	0xba916387	-0.0011092284
196	0x3e0556ec	0.1302144
197	0xbe01e87b	-0.1268634
198	0xbda0a1a8	-0.078433335
199	0xbd5ef006	-0.054428123
200	0x3d308ce6	0.04310312
201	0xbdc62f53	-0.09676995
202	0xbdbfeb69	-0.09371073
203	0x3e122c3a	0.14274684
204	0xbe5fc0a2	-0.21850827
205	0x3e4aff72	0.19824007
206	0x3dea9547	0.11454254
207	0x3df9e64d	0.122021295
208	0xbccac4f1	-0.024752112
209	0xbd875ddc	-0.06609699
210	0x3ddff33d	0.10935066
211	0x3d980e30	0.07424581
212	0x385ba0aa	5.23633e-05
213	0xbd34a6c4	-0.044104353
214	0xbe6a3181	-0.22870447
215	0xbdfc28bc	-0.12312457
216	0x3d8b7e22	0.06811167
217	0xbdd36f32	-0.10323943
218	0xbe5bc56a	-0.21462026
219	0x3cd697c7	0.02619542
220	0x3e021581	0.12703516
221	0x3da7a513	0.08185782
222	0xbe2e9720	-0.17049837
223	0xbdca38de	-0.09874128
224	0xbd401e07	-0.046903636
225	0x3e3ffad6	0.1874803
226	0x3e85b3de	0.2611379
227	0x3dbccec8	0.09219128
228	0x3de413b9	0.11136574
229	0xbdb9476e	-0.09046827
230	0x3e225cc4	0.158557
231	0x3e4b50f3	0.19855098
232	0xbd663e28	-0.05621162
233	0x3d5b25c3	0.05350281
234	0x3d88caae	0.06679283
235	0x3e4fc4c7	0.20289908
236	0xbb8592e1	-0.004076347
237	0xb96c07bf	-0.000225096
238	0x3cc4e93c	0.024036996
239	0x3dd4f38c	0.103980154
240	0xbb1d41ca	-0.0023995512
241	0x3d90f61e	0.07078193
242	0xbdb7f372	-0.089819804
243	0xbe31a82b	-0.17349307
244	0xbd86e870	-0.06587303
245	0x3884fd60	6.341445e-05
246	0x3dbbee86	0.09176354
247	0x3884a1ec	6.324411e-05
248	0xbdc5be4a	-0.096554354
249	0xbe067242	-0.13129523
250	0xbd12c1d0	-0.035829365
251	0x3d8a53a7	0.06754237
252	0x3cbc69c4	0.022999652
253	0x3de6a3ea	0.11261733
254	0xbcec743d	-0.02886402
255	0x3de7cced	0.11318383

layer2.bias f4 [24]
0	0x391995c6	0.00014647012
1	0x3e14517e	0.14484212
2	0x3ab6995d	0.0013931204
3	0x3e387ca5	0.18016298
4	0xbe3119ad	-0.17294951
5	0x3b141cd9	0.0022600202
6	0x3bc9dda4	0.006160455
7	0x3e36e84a	0.17862049
8	0x3d3dc66a	0.0463318
9	0x3dafd28a	0.08585079
10	0x3dc060bb	0.0939345
11	0xbd4ae2d2	-0.04953272
12	0x3d8e942b	0.069618545
13	0x3bcf9c58	0.0063357763
14	0xbe0559bf	-0.13022517
15	0xbc66d760	-0.014089435
16	0x3ddcc130	0.10779035
17	0x3dbeccb2	0.09316386
18	0x3dd3526d	0.10318456
19	0xbe33a856	-0.17544684
20	0xbd44e362	-0.04806841
21	0xbd5c475b	-0.053778987
22	0xbe03f1d3	-0.12885217
23	0x3e361ecb	0.17785184

layer3.weight f4 [3, 24]
0	0x3d62f490	0.055409014
1	0xbe6bdffb	-0.2303466
2	0x3dbc9577	0.09208196
3	0xbe1b524c	-0.15168113
4	0x3e7f7ab6	0.24949154
5	0xbe1f3e2b	-0.15551059
6	0xb91c6c35	-0.0001491763
7	0x3d4e13bc	0.05031179
8	0x3d74c25e	0.059755675
9	0x3d6c3e6a	0.05767671
10	0xbdd356b4	-0.10319272
11	0xbcf005ba	-0.029299606
12	0xbd8a1fb2	-0.06744327
13	0x3d4bbc34	0.04974003
14	0xbcc14a9d	-0.023595149
15	0xbc15f106	-0.009151703
16	0xbd34df95	-0.044158537
17	0xbd5d01a1	-0.05395663
18	0x3df89139	0.12137074
19	0xbdf4771d	-0.119367816
20	0x38337106	4.2782187e-05
21	0x3e1dc1c1	0.15405942
22	0xbdbdec43	-0.09273579
23	0x3d01472f	0.031562027
24	0xb77ce8c4	-1.5074565e-05
25	0x3c5fd6f1	0.013662086
26	0xb6a33c99	-4.864833e-06
27	0x3aa764b4	0.0012771101
28	0xbe15f5e7	-0.14644586
29	0xbd86ab3c	-0.06575629
30	0xbcea2e16	-0.028586429
31	0xbe15fd73	-0.14647464
32	0x3c844af8	0.01614903
33	0xbe06e1f4	-0.13172132
34	0x3e31e4a5	0.17372377
35	0x3cf05de5	0.029341647
36	0x3e3e8504	0.18605429
37	0x396138e2	0.00021478863
38	0x3d066a40	0.03281617
39	0x391c7635	0.00014921355
40	0xbe72c1a9	-0.23706688
41	0x3e19da09	0.1502458
42	0xbe36563b	-0.17806332
43	0x3d98fe3e	0.07470368
44	0x3dcd788e	0.100327596
45	0x3e45f93c	0.19333357
46	0x3dd491a8	0.10379344
47	0xbd9810ef	-0.07425105
48	0xbc010cb6	-0.007876566
49	0x3e29ec30	0.16594005
50	0x39977d1a	0.00028894172
51	0x3e667575	0.22505744
52	0x3df35830	0.11882055
53	0x3c61938a	0.013768086
54	0xb73b0340	-1.1146825e-05
55	0xbbc4fa59	-0.006011289
56	0xbcd11f5b	-0.025527647
57	0xbe15ab83	-0.14616208
58	0xbdacb1c3	-0.08432343
59	0x3e35f9b6	0.17771038
60	0xbe8156e0	-0.25261593
61	0x3d85b966	0.065295026
62	0xbbb64daf	-0.00556346
63	0x3cbff4ba	0.023432124
64	0xbe891346	-0.26772517
65	0xbd6d114c	-0.057877824
66	0xbe61ffed	-0.22070284
67	0xbd390ad0	-0.045176327
68	0xbd1ab520	-0.03777039
69	0xbe3c40b9	-0.18384065
70	0x3e3a985b	0.18222181
71	0xbc0a9f3e	-0.008460818

layer3.bias f4 [3]
0	0x3e54cd42	0.20781425
1	0xbdfeb650	-0.12437117
2	0x3e123dd6	0.14281401
