src/pages/machine-learning/irises/onnx/irises.onnx (onnx, 3933 bytes, 6 tensors)

layer1.weight f4 [24, 4]
00000000: a086 86be c24e ae3e 59d4 27be 030c 613e
00000010: 4fb0 c83d 2baa c33e 66ce eb3d cb2d 1ebf
00000020: f073 f03e 2ae4 54be 49cf 07bf 464d 903e
00000030: e91c 8fb7 5da2 a5be bf78 90be f703 b03d
00000040: 7e2c 77be 7d63 863d 3530 1fbe eb08 e93d
00000050: 439a 18bd 5a8e 4abe 3246 a23d c10e 6d3e
00000060: 5dc8 f33d 13cd 08be b666 85bd 072c cb3e
00000070: 3298 a4be 2d5a 763e 49a1 f5bd 3e8d e5bd
00000080: 8f8f 0c3e 4ae0 a0be b9de f53e 7f7a 823d
00000090: ccf5 54bc edb4 9fbe a7b7 9f3c 2a7c 543d
000000a0: d782 69be 5119 873e 6a6f 6eb6 c0a5 deb9
000000b0: f0b1 cb3c 4bfa 9dbe caf0 8a3e 7d27 013f
000000c0: d0e4 993e 7b47 8d3e 621e 6f3e d85d 913e
000000d0: eb2d 973e dfbb ebbd 20eb 8f3c b398 f93e
000000e0: 5fc2 363e 95e4 50be 1152 3d3d 9f34 193f
000000f0: 401d adbe 95b6 9ebd 590b ceb6 16f4 95be
00000100: be54 0a3e e0f9 a83e bcf7 d93d ae00 d7be
00000110: 2cbe 353e d827 ac3e 63c1 e4be 3687 54bc
00000120: 7be0 09be 868a 54b7 f06d b23d 9808 91bd
00000130: e301 8f3e 4a7a 17bc d4e6 063f 6360 d33d
00000140: 60a7 59be e27c f6bd 8185 8dbd ab08 b2bd
00000150: 269d fe3d ce72 f4bd 1bb3 0b3f 695a b73e
00000160: 613f 873e 6e21 ccbe f4a6 1abd 926e 053d
00000170: 925f 043f 1820 903e 8c8c 8d3e 342c 4cbe
-0.26274586 0.34044462 -0.16389598 0.21977238 0.09799253 0.38215765 0.11513977 -0.61788625
0.46963453 -0.20790163 -0.5305067 0.28183955 -1.706039e-05 -0.32350436 -0.28217122 0.08594506
-0.24138066 0.06561945 -0.15545733 0.11378654 -0.03725649 -0.19780865 0.07923545 0.2315016
0.11903451 -0.1335948 -0.06513731 0.39682028 -0.32147366 0.24057837 -0.11993653 -0.112085804
0.13726638 -0.3142112 0.48021486 0.063710205 -0.012998056 -0.31192723 0.019496752 0.051876225
-0.22803818 0.26386502 -3.5529615e-06 -0.00042466633 0.02486512 -0.3085502 0.27136832 0.5045088
0.30057383 0.27593598 0.23351434 0.2839191 0.2952722 -0.11510443 0.017568171 0.48749313
0.17847584 -0.20399697 0.046220843 0.5984592 -0.33811378 -0.077496685 -6.1405995e-06 -0.29287785
0.13508889 0.3300314 0.10642955 -0.41992706 0.17748326 0.33624148 -0.44678792 -0.01297169
-0.13464539 -1.2668437e-05 0.08712375 -0.07081717 0.27931127 -0.009245465 0.52695966 0.10321119
-0.21255255 -0.12035538 -0.069102295 -0.086930595 0.124323174 -0.1193596 0.5457017 0.35811165
0.26415542 -0.39869255 -0.037756875 0.03257615 0.5170833 0.28149486 0.2764629 -0.19938737

layer1.bias f4 [24]
00000000: 3e00 20b8 6e00 0b3f c6e1 833d d31d 83bd
00000010: 9917 753e bbb4 54be 2741 bdbd 5ac2 cd39
00000020: 38a3 d6bd a3ce e3bd ca3b 643d 2569 cc3e
00000030: c5f4 9b3d 2a74 9cbe b75e c1be def3 92b7
00000040: bbe5 b73e 024e bb3e eeeb 97ba 2c69 833e
00000050: 6afd 32bc ef15 02bf 4896 9cbe a620 9b3c
-3.81472e-05 0.5429753 0.06439547 -0.06402173 0.23934783 -0.20772068 -0.092409424 0.0003924545
-0.1048035 -0.11123397 0.05572108 0.3992397 0.076150455 -0.30557376 -0.37767574 -1.7518116e-05
0.35917458 0.36582953 -0.0011590698 0.25666177 -0.010924676 -0.5081472 -0.30583405 0.018936466

layer2.weight f4 [24, 24]
00000000: 3ad6 c335 f52b 08be 6c1f 69bd 8676 433b
00000010: db7e 34bc bd4e 683d 4667 04be 8720 14bd
00000020: 6743 d1bd dee8 37bc 1f03 063d d6f2 2abd
00000030: 1374 293e c81b f8bd 9d05 433d 3968 41b7
00000040: dfa7 edbd ea3a 28bb 56df 57bd 828f 09be
00000050: 3883 2ebd 1ed0 d63d aac4 8b3d 9fab c5bb
00000060: 8c42 bfb6 803e d337 d5ad fd36 101c 36bc
00000070: b427 913a ef22 ba36 0d27 1237 483c 443c
00000080: 8054 cfb2 5fed 5a3c b25e 8838 51ef ea3b
00000090: b7ec 8038 e273 41bd f6b6 0ebd 2197 0e35
000000a0: 1c50 093c a2b6 1a35 124b 85b7 d6f3 5637
000000b0: 3489 b0b4 4aa9 d139 3c9a 3e3d b7d4 23bd
000000c0: 4613 8c3d 6aae 3ebd 0d4a 4d35 445f 5db4
000000d0: 9579 fdbc aa68 92b6 0bb9 0bbd 3d01 8cb6
000000e0: 2edd 8ebd 63f4 883d 851b 2e3d d8f0 83b6
000000f0: bec3 9438 2af5 49b5 dd2f a834 0a51 4dbd
00000100: bec7 3438 b7f5 f63c a4c2 3e3d 1e89 4bbb
00000110: 61ba 9bb6 542a 88b6 3c50 5a38 d333 9db6
00000120: 09fc 4ab8 1d52 c73c 09cc 243d 7f85 54b7
00000130: 9443 5e38 1d71 be36 a7e6 9bbd abcd 98b8
00000140: f3a1 26be 0486 733d c413 8e3c d734 74bd
00000150: e8df 5dbc cd1d f6bd 7878 abbd c5f4 76bc
00000160: fbf7 4f3e fe66 023e 8f49 9236 39ed 3ebd
00000170: 14d2 8fbd 2380 4dbd d262 57be 9bc5 443e
00000180: 0c8b 363c a762 6dbe db55 f7bd a079 dcbc
00000190: c276 a1b7 74e7 1dbe 8aca 2e3e a0d3 263d
000001a0: 85e9 843d 5e29 f7bc ea46 d539 55d8 32bd
000001b0: b8fe 5c3e af67 ec3d 2289 de3a fc19 ed36
000001c0: c19d 8dbd 72e5 11be cd07 79bc fbda 0a3e
000001d0: 891e 43b7 2aa7 a03e 968b a0bd 3b1e 20bc
000001e0: 3985 b1b6 271c 093b 0fb7 13bd 52d9 2b39
000001f0: fd5b 7638 0359 883d 039f fdb6 58a4 6fb6
00000200: d2ea 863d 238e 8dbd 68d2 1eb6 e44a 5a3d
00000210: eee9 81bd 8695 93b5 b8a0 e035 e9e2 7dbd
00000220: 30c2 4838 7bfd ddba f8ec c0b7 e88f 073d
00000230: 8b83 47bd 0baa f3bc f320 1d3b 87ad 5fbd
00000240: aa24 70bd 37a1 29be dde0 993e f01d 85b2
00000250: 06b0 74b6 e719 2d3e 2e3b 02be beb1 02bc
00000260: 64b9 a6bd ab62 97b8 c9ce 8838 ec1c 8f3c
00000270: dae8 8d3d 4595 8c3d 2567 603c b58e 463c
00000280: 410a 4ebd 3cd0 b23e d63d c036 474b 38bd
00000290: 7c03 5033 f390 2ebe 8d02 adbc 25e9 0e3e
000002a0: 2088 3a3b 283a c23d bca9 6f3e b377 be3c
000002b0: 8a94 24bc 7086 b13d 395a 5a3c ece2 2437
000002c0: 6c70 4abe cae1 0a3d eb06 0db7 8b8f a03d
000002d0: 9051 a0bb 93df bc3d 8580 66be f260 4437
000002e0: 4ad3 913d a00d b6bb aee3 1dbd 1104 f93d
000002f0: 77ed 89bd 616c 5abe a018 bfbd 2ad9 233d
00000300: cd4c e1bb 5671 ecbc fff3 1138 8d14 a3bb
00000310: 6ea8 23bb 9840 e13c b288 84bd c1a9 ce3c
00000320: 12ca e8bb 158f 71b7 243e ea35 e203 173d
00000330: a9fd aebc c208 3fbd bc22 41b5 c76a 943d
00000340: dafc f9b5 d989 2ebd e3f0 1237 c770 63bc
00000350: d56f 9236 5ad9 58b8 077e ff3c 4436 94bd
00000360: 09fd 003d 8c32 d33d ff56 3cbe d5d2 56b7
00000370: ed89 c1bb cc3d 1c3e 37ef 923d c024 0fb6
00000380: d710 92bd 52b9 673d da05 4e34 68b3 4b3e
00000390: a47d f13d fa35 95bd f7d2 b0bd 36fb 9db8
000003a0: 4ad0 55be 7bdf 9abe 311b 6bbd 6425 353e
000003b0: debb ba37 496e a33d 3980 0abe 81a8 1d3e
000003c0: 6cfd 5fbd 2f57 3abd 3063 7dbd c350 9f3a
000003d0: 95d3 65bd 4a01 e13d 55ef 273c 7ad8 5536
000003e0: 391f 993e e4e9 213d 7319 31b9 4683 1d3e
000003f0: 489c f13d e8f8 98bc ad8d 8fbb 06cd 653c
1.459098e-06 -0.13298018 -0.05691473 0.0029825284 -0.011016573 0.056715716 -0.1293002 -0.036163833
-0.10217934 -0.011224953 0.03271782 -0.041735493 0.16548185 -0.12114674 0.047612775 -1.1527963e-05
-0.116042845 -0.002566988 -0.052703224 -0.1343365 -0.04260561 0.10488914 0.0682462 -0.0060324217
-5.6999907e-06 2.5182264e-05 7.5602243e-06 -0.011115089 0.0011074455 5.5472988e-06 8.71137e-06 0.011977263
-2.4136398e-08 0.013362258 6.502624e-05 0.007169642 6.147607e-05 -0.047229655 -0.034842454 5.3119044e-07
0.008380916 5.7635236e-07 -1.5889793e-05 1.28121665e-05 -3.2882383e-07 0.00039989717 0.046533808 -0.039997783
0.068396136 -0.046553053 7.647621e-07 -2.0616886e-07 -0.030941764 -4.3633236e-06 -0.034112018 -4.1724693e-06
-0.069757804 0.06687238 0.042506713 -3.932142e-06 7.09365e-05 -7.5235096e-07 3.1327264e-07 -0.050126113
4.310137e-05 0.030146463 0.046572343 -0.003105707 -4.6410573e-06 -4.0580435e-06 5.2049974e-05 -4.6849977e-06
-4.839528e-05 0.024331147 0.040233646 -1.2667267e-05 5.299186e-05 5.6756094e-06 -0.07612353 -7.2862334e-05
-0.16272716 0.05945398 0.01734341 -0.059620705 -0.013542153 -0.12017403 -0.08372587 -0.015073006
0.20309441 0.12734601 4.3597024e-06 -0.046612952 -0.07022491 -0.05017103 -0.2103379 0.19216006
0.01114155 -0.23182164 -0.120769225 -0.026913464 -1.9247997e-05 -0.15420324 0.1706945 0.040729165
0.06489853 -0.030171093 0.0004067936 -0.04366334 0.21581542 0.115432136 0.0016978125 7.0661754e-06
-0.06914855 -0.14247683 -0.015199614 0.13560097 -1.1630015e-05 0.31377536 -0.07839124 -0.0097728325
-5.29052e-06 0.002092132 -0.03606325 0.00016388789 5.873664e-05 0.06657603 -7.558499e-06 -3.5709436e-06
0.06587757 -0.06911876 -2.3666307e-06 0.053294078 -0.06343447 -1.099587e-06 1.6736076e-06 -0.061983977
4.7864567e-05 -0.0016936505 -2.299853e-05 0.033096224 -0.048709434 -0.029744169 0.0023975938 -0.054608848
-0.058628716 -0.16565405 0.3005437 -1.5496852e-08 -3.6461292e-06 0.16904412 -0.12717888 -0.007976947
-0.08140829 -7.2186194e-05 6.523502e-05 0.017469846 0.069291785 0.068644084 0.013696467 0.012118985
-0.050302748 0.34924495 5.7292445e-06 -0.044993665 4.8431943e-08 -0.17047481 -0.02111938 0.13956125
0.0028462484 0.09483749 0.23404592 0.023250436 -0.01004518 0.0866822 0.013327175 9.827996e-06
-0.19769448 0.033906735 -8.405866e-06 0.07839879 -0.0048925355 0.09222331 -0.22509964 1.1705082e-05
0.07120378 -0.0055558234 -0.03854721 0.12158979 -0.06734746 -0.21330406 -0.09330869 0.040002026
-0.0068756104 -0.028862637 3.4797933e-05 -0.004976815 -0.0024972218 0.027496621 -0.06471385 0.02522743
-0.007104167 -1.4398033e-05 1.7452444e-06 0.036868937 -0.021361189 -0.04663921 -7.194865e-07 0.07246929
-1.8625535e-06 -0.04261193 8.758364e-06 -0.013881869 4.364158e-06 -5.1700838e-05 0.031188024 -0.07236913
0.031491313 0.103123754 -0.18392561 -1.2804482e-05 -0.0059063346 0.15257949 0.07174533 -2.1330052e-06
-0.07132118 0.05657322 1.9187374e-07 0.19892657 0.11791542 -0.07285686 -0.08633988 -7.533135e-05
-0.20880237 -0.30248627 -0.05739898 0.17690045 2.226041e-05 0.079800196 -0.13525476 0.1539631
-0.05468504 -0.0454933 -0.06186217 0.0012154806 -0.056109983 0.10986574 0.010249932 3.186548e-06
0.29906633 0.039529696 -0.00016889516 0.15382108 0.117973864 -0.018673375 -0.0043809027 0.014025932

layer2.bias f4 [24]
00000000: 1994 3c3e b922 9ab6 6885 1737 45d7 bd3d
00000010: 4bdb b8bd 69a6 8f3d 2c31 33be 6e66 693e
00000020: cc9c 963a aa7c 33be 2b39 17be 84b1 abbc
00000030: d2cf 83bd 36a6 2a3d 39da bc3d 2363 843c
00000040: de90 a4bb 5471 d9ba f281 8dbd 1049 3fb6
00000050: aee4 e7bd 566b 133e 8db1 c7bd 1751 32bd
0.1841587 -4.5936e-06 9.031362e-06 0.09269575 -0.09026202 0.07014162 -0.17499226 0.2279298
0.0011490821 -0.17528024 -0.14767902 -0.02095867 -0.06436123 0.041662417 0.0922131 0.016160553
-0.0050221523 -0.001658956 -0.06909551 -2.8503746e-06 -0.11322914 0.14396414 -0.09750662 -0.043534365

layer3.weight f4 [3, 24]
00000000: 6451 fc3c 09bc cb3b 7e61 7d3d 06ec 5e3e
00000010: 7b36 39be a6b1 3a3b 30fa 273e 3cef 6d3e
00000020: b0ab ea39 d373 c5bc 285f 62be 2724 49bd
00000030: fbf7 6ebc 0df0 6ebd cee9 85be 52a8 96bd
00000040: 650b a0bc 2a01 9fbc 94b7 933e 2b96 e73c
00000050: f4dc 12be 60de 8a3e 4acb 8bbd d02c 583e
00000060: 7b9e d4bd 8f22 c037 90ca 173d dac0 dcbd
00000070: 85ac 6c3e cf01 353d 687c 21be 479b cb3c
00000080: 06f8 893b 5a4f 33bd afa6 bbbd 42d8 3fbe
00000090: b569 da36 1f16 213c ea0f 623d a0ae 38be
000000a0: eca7 93b8 ca1d 853b 0ba1 8b3d 139a ea34
000000b0: 6fec 19be 42eb 293d be0d 1d3d 3300 81be
000000c0: 2579 0abe 91f3 88bd 36c9 86b5 135c 4abe
000000d0: 3b9b 1a3e b489 223d a02b a23c ba5f adbe
000000e0: b19f 89b6 7e99 473e 7967 8bbd 3dca 983d
000000f0: 2665 33b7 42c1 293e 5743 7d3c 5b2f 6c3e
00000100: 6492 d4b7 e5ab 0a3a d1e5 fbbd 5e3f 11bd
00000110: 635a 853e 0f42 2cbe 80a8 0fbe 3a89 85be
0.030800529 0.006217484 0.061860554 0.21769723 -0.18087189 0.0028487234 0.16404033 0.23235792
0.00044759875 -0.02410308 -0.22106612 -0.049106743 -0.01458549 -0.0583344 -0.2615494 -0.07356323
-0.019536683 -0.019409735 0.28850996 0.028269848 -0.143421 0.27122784 -0.06825884 0.21110845
-0.1038179 2.2904276e-05 0.037058413 -0.10778971 0.23112686 0.044191178 -0.15770113 0.024854315
0.004210475 -0.043776847 -0.09162652 -0.1873484 6.509212e-06 0.009831934 0.055190958 -0.18035364
-7.040784e-05 0.004062389 0.06817826 4.3698e-07 -0.15031599 0.041484125 0.038343184 -0.25195464
-0.13522775 -0.066870816 -1.0042338e-06 -0.19761686 0.15098278 0.039682105 0.019796193 -0.33862096
-4.1015087e-06 0.19492146 -0.06806845 0.07460449 -1.0692782e-05 0.16577628 0.01545795 0.2306494
-2.5340538e-05 0.00052898965 -0.122996934 -0.035460822 0.26045522 -0.16822074 -0.14029121 -0.26081258

layer3.bias f4 [3]
00000000: 7b0d a6bd c20d 3a3e 4299 43be
-0.0810804 0.1816931 -0.19101432
